checkpoint.pth (torch_old, 28415 bytes, 6 tensors)

fc1.weight f4 [64, 37]
0	0x3ced0024	0.028930731
1	0x3ec6c8d2	0.3882509
2	0xbe98b7bd	-0.2982768
3	0x3d5b4522	0.053532727
4	0xbe4760c1	-0.19470502
5	0xbe28228b	-0.16419427
6	0xbd0cbe57	-0.03436121
7	0x3e890885	0.26764312
8	0x3d6c53c7	0.057697084
9	0xbe8ff01a	-0.2811287
10	0x3eebcdc2	0.46055418
11	0xbe9a40df	-0.30127618
12	0xbcf612b1	-0.03003821
13	0x3c7a25bd	0.015267787
14	0xbe72a899	-0.23697127
15	0xbed9c1a9	-0.42530563
16	0x3ed6406a	0.4184602
17	0x3dcc55a2	0.09977271
18	0x3d8119e9	0.0630377
19	0xbec607ad	-0.3867773
20	0x3d2c0a31	0.042001907
21	0xbe3d6262	-0.18494561
22	0x3d28c19e	0.041200273
23	0x3a8fd085	0.0010972178
24	0xbecc4322	-0.39894968
25	0x3dd2a358	0.102850616
26	0x3d03628d	0.032076407
27	0xbe921b41	-0.28536418
28	0x3d1b8434	0.037967876
29	0xbe535cdb	-0.2064089
30	0x3ee243ef	0.44192454
31	0xbedaacae	-0.4270987
32	0x3de753ce	0.11295281
33	0xbd35007c	-0.044189915
34	0x3d8e1ee7	0.06939488
35	0x3dd00e9a	0.10159035
36	0x3cd1e4a0	0.025621712
37	0x3ec9eb32	0.39437252
38	0x3c8b8241	0.017029883
39	0xbc9eef5b	-0.019401243
40	0xbed39879	-0.41327265
41	0x3d36980d	0.0445786
42	0x3e519db1	0.20470311
43	0x3dc6c6a7	0.09705859
44	0xbe1d1260	-0.15339041
45	0x3edcb3f4	0.43106043
46	0x3d94f85c	0.07273933
47	0x3d4259de	0.047448985
48	0xbe75fbf6	-0.24021897
49	0x3d82765e	0.06370233
50	0xbe60dae0	-0.21958494
51	0x3cf175ad	0.029475057
52	0xbe99f466	-0.30069274
53	0xbd8cf52d	-0.06882701
54	0x3e9c7988	0.3056147
55	0xbeaea568	-0.3411057
56	0x3c828c31	0.01593599
57	0xbe04f0f2	-0.12982538
58	0x3e3b67c4	0.18301302
59	0x3b53acfc	0.0032299152
60	0x3dee7bb0	0.11644685
61	0xbe7b74a9	-0.24556221
62	0xbcee10c1	-0.029060723
63	0xbecc5ccc	-0.39914548
64	0x3e7a7ad0	0.24460912
65	0x3dbf6dcc	0.09347114
66	0xbd8401bc	-0.06445643
67	0xbe83c9ee	-0.25739998
68	0x3df168bb	0.11787554
69	0xbe48320e	-0.19550344
70	0x3f0f8bf1	0.5607291
71	0x3e58fb89	0.21189703
72	0x3e21fd5b	0.15819304
73	0xbe0aee47	-0.13567458
74	0xbf213ca9	-0.62983185
75	0xbdd56df4	-0.104213625
76	0x3e00b701	0.1256981
77	0xbcf42c19	-0.029806184
78	0x3e890453	0.26761112
79	0x3e4976e9	0.19674267
80	0xbe8e3587	-0.27775213
81	0xbdf9de46	-0.122005984
82	0x3eddd37e	0.43325418
83	0xbdcbfe4e	-0.09960614
84	0x3da53714	0.08067146
85	0xbe758efb	-0.23980324
86	0x3e716795	0.2357467
87	0xbe6e1776	-0.23251137
88	0xbe8e3532	-0.2777496
89	0xbd2403dd	-0.040042747
90	0x3e3174c1	0.17329694
91	0x3d159447	0.03651836
92	0x3dd4f984	0.10399154
93	0xbd6197e8	-0.05507651
94	0xbe841e40	-0.2580433
95	0x3e7d1941	0.24716665
96	0x3e14192b	0.14462726
97	0xbdcb5cc7	-0.09929805
98	0xbeb924ea	-0.36160976
99	0xbe592e35	-0.21209033
100	0xbeb6e4c6	-0.35721415
101	0x3e15c2d5	0.14625104
102	0x3e96364e	0.29338306
103	0xbeb010cf	-0.34387824
104	0x3de8a014	0.113586575
105	0xbef8e39d	-0.48611155
106	0xbe0acc19	-0.1355442
107	0xbd60149d	-0.05470716
108	0xbeb2d1ec	-0.34925783
109	0xbdd661fe	-0.10467909
110	0x3e284759	0.16433467
111	0x3bdab578	0.006674465
112	0x3c9c6956	0.019093197
113	0xbe1d0328	-0.15333235
114	0xbddd20ec	-0.10797295
115	0xbdb4baa4	-0.088246614
116	0x3cd29808	0.02570726
117	0xbe2deba3	-0.1698442
118	0xbdd1b8a8	-0.102402985
119	0xbdc7e840	-0.09761095
120	0xbd4fb62a	-0.050710835
121	0xbdbdef24	-0.09274128
122	0xbc2d6245	-0.010582511
123	0xbde4268a	-0.11140163
124	0xbe0d5765	-0.1380287
125	0xbde901a0	-0.11377263
126	0xbd667ee2	-0.05627335
127	0xbe04df03	-0.12975697
128	0x3dbe8941	0.09303523
129	0xbd05a430	-0.032627285
130	0x3de5d130	0.1122154
131	0x3d51d008	0.051223785
132	0xbe0e8dbd	-0.13921256
133	0x3d8d3ba7	0.068961434
134	0xbd3946ca	-0.045233525
135	0xbdbca8b2	-0.092118636
136	0xbe0bbce4	-0.13646275
137	0xbe275c8e	-0.163439
138	0x3b1202c1	0.0022279473
139	0xbd131868	-0.035911947
140	0x3d1d9d20	0.038479924
141	0xbe095334	-0.13410646
142	0x3dc66307	0.09686857
143	0xbe1be646	-0.15224561
144	0xbce88c88	-0.028387323
145	0x3c1662f2	0.009178864
146	0x3dadd0fe	0.08487128
147	0x3e07e803	0.13272099
148	0x3ead4543	0.33841905
149	0xbe7e6226	-0.24842128
150	0xbf06abf6	-0.5260614
151	0x3dda99ac	0.10673842
152	0xbe6abb04	-0.22922903
153	0xbe84ded3	-0.2595125
154	0x3df9c0c9	0.12194974
155	0xbe6a4577	-0.22878061
156	0x3e9e1220	0.30873203
157	0x3edba2f1	0.42897752
158	0x3d4895dc	0.048971042
159	0xbefda031	-0.4953628
160	0x3ea01027	0.31262323
161	0xbbbe09c3	-0.0057995035
162	0x3e3fdb2a	0.18735948
163	0xbe17be9e	-0.14818808
164	0xbeee673f	-0.46563146
165	0x3e3d0d13	0.18462019
166	0xbe2f9f3f	-0.17150591
167	0x3ec3111f	0.38099
168	0x3e0a2bac	0.13493222
169	0xbdb4f61c	-0.08836004
170	0xbf18f367	-0.597464
171	0xbcc8e4a6	-0.02452309
172	0x3e51a6dc	0.20473808
173	0xbe5b5b25	-0.21421488
174	0xbef900ef	-0.48633525
175	0x3e0fa864	0.1402908
176	0xbe60f1d3	-0.21967249
177	0x3e7eb491	0.24873568
178	0x3e49a017	0.19689976
179	0xbf08b442	-0.5340005
180	0xbe279c5c	-0.1636824
181	0x3ee37ced	0.44431248
182	0xbda9dba3	-0.082938455
183	0xbd6fce7c	-0.05854653
184	0x3dafbb72	0.08580674
185	0x3e6b53a4	0.22981125
186	0x3da22ce5	0.07918719
187	0xbe14d396	-0.14533839
188	0xbd9939df	-0.07481741
189	0x3cbab362	0.022790615
190	0xbd20bb2e	-0.03924101
191	0xbdc9a853	-0.098465584
192	0x3df7d370	0.121008754
193	0x3ee0288c	0.43780935
194	0x3d659983	0.056054603
195	0xbdfb5cd7	-0.12273567
196	0xbdb33d61	-0.087519415
197	0x3def545f	0.116860144
198	0x3db758c1	0.08952475
199	0x3e22158e	0.15828535
200	0xbbe7ba13	-0.0070717423
201	0xbe86acd3	-0.2630373
202	0x3e56a2a1	0.20960476
203	0xbe915237	-0.28383037
204	0x3da53558	0.08066815
205	0xbdbb1335	-0.09134523
206	0xbd515ebf	-0.051115748
207	0xbe3dfd7b	-0.18553726
208	0x3c4c1d10	0.012458101
209	0x3e4e68ff	0.2015724
210	0x3d08236c	0.033236906
211	0x3de0c7e0	0.10975623
212	0xbdc3c0aa	-0.09558232
213	0x3dc4b61d	0.09605048
214	0x3dd22096	0.102601215
215	0x3d2e8d07	0.042614963
216	0x3e9209bb	0.2852305
217	0xbdb1dcea	-0.08684714
218	0x3eb71892	0.35760933
219	0xbe5202a2	-0.20508817
220	0xbdd9ec87	-0.10640817
221	0x3df5bebe	0.11999272
222	0x3ce2626f	0.027634827
223	0xbe12e11e	-0.14343688
224	0xbf243aa2	-0.64151967
225	0x3de1560e	0.11002742
226	0x3e8ec307	0.2788317
227	0x3df3ce1d	0.11904547
228	0xbebebd9b	-0.37254032
229	0xbe87ad5f	-0.2649946
230	0xbe7ee5ec	-0.24892396
231	0x3eb649ba	0.35603124
232	0x3e4f2139	0.20227517
233	0xbd83925d	-0.06424401
234	0xbc368cd1	-0.011141972
235	0x3c8f6c95	0.01750783
236	0x3d71daec	0.05904667
237	0xbe198b54	-0.14994556
238	0xbef969fe	-0.48713678
239	0xbe6cdd5b	-0.23131315
240	0x3e1726bc	0.1476087
241	0x3e9c8cee	0.3057627
242	0xbc6dde5e	-0.0145183485
243	0xbec7c007	-0.39013693
244	0xbd355a74	-0.044275716
245	0xbe168a27	-0.14701138
246	0xbd969399	-0.07352371
247	0x3d82b3e0	0.06381965
248	0xbd3037e0	-0.043022037
249	0x3dc9efeb	0.09860214
250	0xbe0eda65	-0.13950498
251	0x3cb95102	0.022621635
252	0xbd22c77b	-0.03974102
253	0xbe15922f	-0.14606546
254	0xbd936769	-0.07197458
255	0xbf03df2c	-0.5151241

fc1.bias f4 [64]
0	0xbcf6116f	-0.03003761
1	0x3e0bc0d3	0.13647775
2	0x3e38d079	0.18048276
3	0xbd5145bc	-0.051091895
4	0xbe12f8ee	-0.14352772
5	0xbbefb7a9	-0.007315595
6	0xbd54e8be	-0.051979773
7	0x3dd3ba0e	0.103382215
8	0xbe2c4eaf	-0.1682689
9	0x3e016635	0.12636645
10	0x3dad3b48	0.084585726
11	0x3d01683c	0.031593546
12	0xbccc832e	-0.024964895
13	0xbc0e17bc	-0.008672651
14	0xb9c9fbf7	-0.00038525436
15	0xbd9508a7	-0.07277041
16	0x3dc3d4e2	0.095620885
17	0x3e055568	0.13020861
18	0x3e8833d8	0.26602054
19	0xbdb78a0e	-0.08961879
20	0x3d692d6a	0.056928076
21	0xbd819d22	-0.06328799
22	0xbd6bddeb	-0.057584684
23	0x3e1819ea	0.14853635
24	0x3bc911d2	0.0061361575
25	0xbe3f60bd	-0.18689246
26	0xbdba2429	-0.09088928
27	0xbe10e089	-0.14148153
28	0x3e94056c	0.28910387
29	0x3e81d64f	0.25358817
30	0xbdbb179f	-0.09135365
31	0xbdcd43b2	-0.100226775
32	0xbda479f8	-0.08031076
33	0x3d3cdefc	0.046111092
34	0x3da1a914	0.07893577
35	0x3d4961cd	0.049165536
36	0x3d939131	0.072054274
37	0x3c2b9323	0.010472092
38	0x3e3b7c2b	0.18309085
39	0xbe342225	-0.1759115
40	0xbcef8baf	-0.029241411
41	0xbada19ea	-0.0016639803
42	0xbc80a8ca	-0.015705485
43	0x3e25a578	0.16176403
44	0x3e31b062	0.17352441
45	0xbd75e6db	-0.060034614
46	0xbd4af43e	-0.049549334
47	0x3e909947	0.2824194
48	0xbda5bdd8	-0.080928504
49	0x3da68429	0.08130676
50	0xbdb5f62d	-0.08884845
51	0x3df9e7a8	0.12202388
52	0xbd8bf1ce	-0.0683323
53	0xbd9f7edd	-0.07787869
54	0x3e0a8347	0.13526641
55	0x3d929dd3	0.07159009
56	0x3e03ae19	0.12859382
57	0x3e990152	0.2988382
58	0xbda719b0	-0.081591964
59	0xbd963356	-0.0733401
60	0x3d3f08e0	0.046639323
61	0x3dce4021	0.10070825
62	0xbcc7a67e	-0.024371382
63	0xbde0380a	-0.109481886

fc2.weight f4 [64, 64]
0	0xbf45d5ac	-0.7727916
1	0x3c67b347	0.014141864
2	0x3e9ced72	0.30649906
3	0x3dd67a39	0.10472531
4	0x3f40dcc3	0.75336856
5	0x3d2ac729	0.04169384
6	0x3ec455ad	0.38346615
7	0x3e257a8a	0.16160026
8	0xbd0e4206	-0.034730934
9	0x3ed0b23a	0.40760976
10	0xba962b67	-0.0011457027
11	0xbeaa604b	-0.3327659
12	0x3f0ad8bb	0.54236954
13	0xbf48a319	-0.7837387
14	0x3d7b48d9	0.06134877
15	0x3e9513b0	0.29116583
16	0x3e891258	0.26771808
17	0x3f0c50f6	0.54811037
18	0x3cc1517b	0.023598423
19	0x3f93d789	1.1550151
20	0xbe5832da	-0.21113148
21	0x3b088883	0.002083332
22	0x3ebd33de	0.36953634
23	0xbdae63c8	-0.085151255
24	0x3f075153	0.52858466
25	0x3d9e1a73	0.077198885
26	0xbeac5b99	-0.33663633
27	0xbdc6e7c2	-0.09712173
28	0x3d7f5173	0.062333535
29	0xbb189e57	-0.0023287737
30	0x3e84aed3	0.2591463
31	0x3e8547d0	0.2603135
32	0x3da4c0a1	0.080445535
33	0x3e520226	0.20508632
34	0x3dab36b2	0.08360042
35	0x3e6aefb1	0.22942998
36	0xbe622b8b	-0.22086923
37	0x3e18f1b2	0.1493595
38	0x3e8b696c	0.27228868
39	0xbe0b963d	-0.1363153
40	0xbc2656f6	-0.010152569
41	0xbd985be4	-0.07439402
42	0x3ebd8255	0.37013498
43	0xbc5a3640	-0.013318598
44	0x3e3e46a5	0.18581636
45	0x3eabd027	0.33557245
46	0xbe91396f	-0.2836413
47	0xbd8a9d01	-0.06768227
48	0x3e2ba683	0.16762738
49	0x3e4c8649	0.199731
50	0x3de07dae	0.109614715
51	0xbea943dc	-0.33059585
52	0x3e3193f5	0.17341597
53	0xbf243f60	-0.641592
54	0x3e90633a	0.28200704
55	0x3de30463	0.11084821
56	0x3ead255b	0.33817562
57	0x3d07444e	0.033024125
58	0xbd057cd7	-0.03258976
59	0x3e075e48	0.13219559
60	0xbdea829d	-0.11450694
61	0xbcb0069e	-0.02148753
62	0xbf3f2ea8	-0.74680567
63	0xbf103701	-0.5633393
64	0xbf3a465e	-0.7276362
65	0xbd0b8bcd	-0.03406887
66	0x3ef27e9f	0.4736223
67	0x3c5d7db6	0.013518741
68	0x3f832a0f	1.024721
69	0xbd8036ec	-0.062604755
70	0x3e706b6e	0.23478481
71	0x3dfee525	0.124460496
72	0xbe05f459	-0.13081492
73	0x3ea95600	0.33073425
74	0xbe085110	-0.13312173
75	0xbe9308fa	-0.28717786
76	0x3efca8aa	0.4934743
77	0xbf3c441e	-0.7354144
78	0xbd7bf78f	-0.061515387
79	0x3ea4534d	0.32094803
80	0x3e828eb0	0.25499487
81	0x3f10de54	0.56589246
82	0x3dd7fa25	0.10545758
83	0x3f89cd62	1.0765803
84	0xbe82ff75	-0.25585523
85	0xbbd48fc1	-0.0064868634
86	0x3f1bd728	0.6087518
87	0xbbe07444	-0.0068497974
88	0x3f03a1b4	0.51418614
89	0xbdb792b7	-0.089635305
90	0xbee06ea5	-0.43834415
91	0x3dd33f58	0.10314816
92	0x3c88ef07	0.01671554
93	0x3dd444b5	0.10364667
94	0x3e779577	0.2417811
95	0x3deffd2d	0.11718211
96	0x3e28dd40	0.1649065
97	0x3e9e8a33	0.30964813
98	0xbc941c4b	-0.018079897
99	0x3e87da1d	0.26533595
100	0xbe972f9a	-0.29528505
101	0x3e47f261	0.19526054
102	0x3ed61812	0.4181524
103	0x3cff7b28	0.031186655
104	0xbc70b3d5	-0.014691313
105	0xbda9755d	-0.082743384
106	0x3efd9bd1	0.4953294
107	0xba2334ef	-0.0006225844
108	0x3e319c25	0.1734472
109	0x3ecef6f9	0.404228
110	0xbeafe5b8	-0.3435495
111	0x3deb6b59	0.11495084
112	0x3e180155	0.14844258
113	0x3e49e870	0.19717574
114	0xbd4f235b	-0.050570827
115	0xbeb078b2	-0.34467083
116	0x3d74ccce	0.05976563
117	0xbf1e6d85	-0.61885864
118	0x3ed5e79c	0.41778266
119	0xbcfcbe06	-0.030852329
120	0x3eb8e5dd	0.36112872
121	0xbce4c182	-0.027924303
122	0x3d260f09	0.040541682
123	0xbd839f4f	-0.0642687
124	0xbe65fd1f	-0.2245984
125	0x3d0b7661	0.03404844
126	0xbf455772	-0.77086556
127	0xbf01a193	-0.5063717
128	0xbf38452c	-0.7198055
129	0x3b83ecd7	0.0040260362
130	0x3eec4450	0.46145868
131	0x3cc502db	0.024049213
132	0x3f303b28	0.68840265
133	0x3d03fa08	0.03222087
134	0x3e87234a	0.2639411
135	0x3eabf51a	0.33585435
136	0x3b6edf4d	0.0036449016
137	0x3ec04a02	0.37556463
138	0xbca70e41	-0.020392539
139	0xbe363e09	-0.17797102
140	0x3ef3e6df	0.47637078
141	0xbf1a8349	-0.60356575
142	0x3dce280d	0.10066233
143	0x3dd2f064	0.10299757
144	0x3e8c6953	0.27424106
145	0x3eebf958	0.46088672
146	0xbd85c70a	-0.06532104
147	0x3f88622a	1.0654957
148	0xbe7cdc6f	-0.24693464
149	0xbcd0ee0f	-0.02550414
150	0x3f0b8e37	0.5451388
151	0xbdaaf5ec	-0.08347687
152	0x3ebf54fa	0.3736952
153	0xbcfb0ba7	-0.030645205
154	0xbebacdfd	-0.36485282
155	0x3ba59adc	0.005053861
156	0x3d9d64b7	0.076852255
157	0xbd269f28	-0.040679127
158	0x3da56500	0.08075905
159	0x3e227c62	0.15867761
160	0x3e156c5e	0.1459212
161	0x3e960b80	0.2930565
162	0x3d17cf0f	0.0370627
163	0x3e95099c	0.29108894
164	0xbe433675	-0.19063742
165	0x3ea9d377	0.33169147
166	0x3ecd69fb	0.4011992
167	0xbd0db169	-0.03459302
168	0xbe0ae8b1	-0.13565327
169	0xbe3b8e83	-0.18316083
170	0x3efb2f10	0.49059343
171	0x3e16368b	0.14669244
172	0x3d19b88e	0.03752952
173	0x3eae8386	0.3408472
174	0xbe843989	-0.25825146
175	0x3c988fda	0.018623281
176	0x3e3f9f0c	0.18713015
177	0x3e3ded85	0.18547638
178	0x3e1114ea	0.14168134
179	0xbe8fbf3e	-0.28075594
180	0x3e871d01	0.26389316
181	0xbf2a78e4	-0.66590714
182	0x3e91a0fe	0.2844314
183	0x3d7bee7d	0.061506737
184	0x3eb5b5dc	0.3549031
185	0x3d9620a9	0.07330448
186	0x3d38aeac	0.045088455
187	0xbdc91c77	-0.09819882
188	0xbe2e221a	-0.17005196
189	0xbd73044c	-0.05933027
190	0xbf56e63b	-0.83945054
191	0xbf01543d	-0.5051916
192	0xbd9bee1d	-0.07613776
193	0x3db2ff2d	0.08740077
194	0xbdab3e80	-0.0836153
195	0x3d250054	0.040283516
196	0x3d964332	0.07337035
197	0xbdd34981	-0.10316754
198	0x3d830404	0.0639725
199	0xbd5142d1	-0.05108911
200	0x3d84a650	0.06477034
201	0x3df2032b	0.118170105
202	0xbda1e98c	-0.07905874
203	0xbd65e6ce	-0.056128316
204	0x3d856e2d	0.06515155
205	0xbb018ac3	-0.0019766546
206	0xbd02312f	-0.031785186
207	0x3d81985f	0.063278906
208	0xbd9bea4b	-0.07613047
209	0xbce8a20d	-0.028397584
210	0x3d6217da	0.055198528
211	0x3d070fa1	0.03297389
212	0xbda595a8	-0.08085185
213	0x3c8a01cb	0.016846558
214	0xbdf12dfa	-0.117763475
215	0xbdbe2795	-0.092848934
216	0x3d368e97	0.044569578
217	0xbd08744c	-0.033314034
218	0xbd7b4f62	-0.061355002
219	0x3c112ac0	0.00886029
220	0x3b9ce3fb	0.0047879196
221	0xbdcfc635	-0.10145227
222	0xbdfac838	-0.1224522
223	0xbdfefd2c	-0.124506325
224	0xbbd9bc90	-0.006644793
225	0xbdf39b18	-0.11894816
226	0xbc8a595f	-0.016888319
227	0xbd887546	-0.06662993
228	0xbda7635e	-0.0817325
229	0xbd987e2d	-0.07445941
230	0xbde4c8bb	-0.11171099
231	0xbdb37e8e	-0.08764373
232	0xbcc86ed7	-0.024466915
233	0xbdf3d49d	-0.11905787
234	0xbe11c414	-0.14234954
235	0x3d9a5404	0.07535556
236	0xbc8f4225	-0.017487595
237	0xbd9de3b7	-0.07709449
238	0xbc9978b2	-0.01873431
239	0x3d9051ba	0.07046838
240	0xbe11e9b7	-0.14249311
241	0xbdd6362a	-0.1045955
242	0xbde6cec8	-0.11269909
243	0xbc14e440	-0.009087622
244	0xbd12b320	-0.03581536
245	0xbdc78096	-0.09741323
246	0x3d46a43f	0.04849648
247	0xbde9887f	-0.11402988
248	0x3dc4223f	0.095768444
249	0xbde0021c	-0.10937902
250	0xbc8c55a8	-0.017130688
251	0x3cbf7980	0.023373365
252	0xbd4fc5ab	-0.05072562
253	0x3dbd269c	0.0923588
254	0xbda87e38	-0.08227199
255	0xbcbaca73	-0.022801613

fc2.bias f4 [64]
0	0x3da9d379	0.08292288
1	0xbcd03e1f	-0.025420247
2	0x3c98a5ac	0.018633686
3	0xbd7cf804	-0.061759964
4	0x3e00e76b	0.12588279
5	0x3d1c6a7c	0.03818749
6	0x3e2627b1	0.16226079
7	0x3e0d6767	0.13808976
8	0x3e4b989f	0.19882439
9	0x3e6a221f	0.22864579
10	0xbd85306b	-0.065033756
11	0x3e6115de	0.21980998
12	0x3e1ff852	0.1562207
13	0x3ccf8dac	0.02533611
14	0xbc8ba8b7	-0.017048223
15	0xbdccf689	-0.1000796
16	0xbd4a3182	-0.04936362
17	0x3cbca02f	0.0230256
18	0xbd0edd32	-0.034878917
19	0x3da40710	0.080091596
20	0xbe169574	-0.1470545
21	0xbe26ad90	-0.16277146
22	0xbc57d40d	-0.013173115
23	0x3dc774e3	0.09739091
24	0x3d815b6f	0.06316268
25	0xbe0cbdec	-0.13744324
26	0xbdb87144	-0.09005979
27	0x3d367d61	0.044553164
28	0xbd85548f	-0.06510269
29	0xbdfbe202	-0.12298967
30	0x3e6c6d75	0.2308863
31	0xbdd51674	-0.10404673
32	0xbc92d4c6	-0.017923724
33	0x3e7cb70b	0.246792
34	0x3e95bb89	0.2924464
35	0xbe17c856	-0.14822516
36	0x3dbbc37b	0.09168144
37	0x3ad0757b	0.0015904153
38	0x3d4b1fbb	0.049590807
39	0x3e828217	0.25489876
40	0xbcd2abd1	-0.025716694
41	0xbd7a9f4b	-0.06118707
42	0xbd85948b	-0.06522473
43	0x3dce0d3e	0.100611195
44	0xbcf64b8a	-0.030065317
45	0x3dee0df1	0.11623753
46	0x3db7ab1d	0.08968184
47	0x3e8415f7	0.25798008
48	0x3e839bcf	0.2570481
49	0x3d77efb4	0.060531333
50	0xbe01efa4	-0.12689072
51	0xbd86292f	-0.06550824
52	0x3c3bb7fe	0.011457441
53	0x3e37f145	0.17963131
54	0x3c1e22f6	0.00965189
55	0x3d0e03ad	0.034671474
56	0x3cc6a625	0.024249146
57	0xbbf8fbd9	-0.007598382
58	0x3d038782	0.032111652
59	0xbdc04d01	-0.09389687
60	0x3e79c955	0.24393208
61	0xbdfce5c6	-0.12348513
62	0xbdeb3a4a	-0.11485727
63	0x3e2866cb	0.16445462

fc3.weight f4 [4, 64]
0	0x3ed26c64	0.4109832
1	0x3ea98ef2	0.3311687
2	0x3ed10b06	0.40828723
3	0xbd896a53	-0.06709733
4	0xbf004000	-0.50097656
5	0x3ebed7f0	0.37274122
6	0xbf5f7a53	-0.87296027
7	0xbeda2246	-0.42604274
8	0x3f744803	0.9542238
9	0xbef49afe	-0.477745
10	0xbd3bd009	-0.045852695
11	0xbf7117b7	-0.9417681
12	0x3f4cd918	0.8001876
13	0x3e0384b0	0.12843585
14	0xbd6986d3	-0.057013344
15	0x3c3376e7	0.0109536415
16	0x3f0cc49c	0.549875
17	0x3ed265a9	0.41093186
18	0x3ed97110	0.42469072
19	0x3eeeabdc	0.46615493
20	0xbd062a6f	-0.03275531
21	0x3cb84758	0.022494957
22	0x3ed9adaf	0.42515323
23	0x3ee43472	0.44571263
24	0x3eb0081f	0.34381196
25	0x3d9bba95	0.07603947
26	0x3d93ea49	0.07222421
27	0x3ebc0f78	0.36730552
28	0xbdbb0522	-0.091318384
29	0x3d652789	0.055945907
30	0xbefd3ea5	-0.49461856
31	0x3cafeef0	0.021476239
32	0x3d4f7791	0.050651137
33	0xbeec6ce5	-0.4617683
34	0xbee98d34	-0.45615542
35	0xbd270199	-0.040773008
36	0x3ec04642	0.37553602
37	0x3edc3402	0.4300843
38	0xbca0ff70	-0.019653052
39	0xbec7af2b	-0.3900083
40	0x3ebdc59d	0.3706483
41	0xbc540e76	-0.012942901
42	0xbce15f8f	-0.027511386
43	0x3ec0d668	0.3766358
44	0x3edf7b33	0.4364868
45	0x3eb6cc7b	0.3570288
46	0x3ee46dea	0.44615108
47	0xbec0c8a0	-0.37653065
48	0xbed6d6b7	-0.4196069
49	0x3c9c0c5f	0.019048868
50	0xbdf82b18	-0.121175945
51	0x3ecfc074	0.40576518
52	0xbf604d13	-0.87617606
53	0xbf512522	-0.81697285
54	0xbcac6db1	-0.021048399
55	0xbd28429b	-0.041079145
56	0xbd552e9e	-0.05204641
57	0xbc72a7d7	-0.014810524
58	0x3eb101d1	0.34571698
59	0x3d168b1f	0.03675377
60	0xbeceff9f	-0.40429398
61	0xbc88d108	-0.016701236
62	0x3ce169c8	0.02751626
63	0xbedc4683	-0.43022546
64	0x3ec9f964	0.39448082
65	0x3ee075aa	0.4383977
66	0x3ecb7764	0.39739525
67	0xbdbb7c3d	-0.09154556
68	0xbeaf901a	-0.34289628
69	0x3ecfb209	0.40565518
70	0xbf5f1d90	-0.87154484
71	0xbe9e549b	-0.30923924
72	0x3f73ee37	0.9528536
73	0xbed28347	-0.41115782
74	0x3dd517af	0.10404908
75	0xbf723e8c	-0.9462669
76	0x3f4db0ce	0.8034791
77	0xbd230b99	-0.039805982
78	0x3df53e1e	0.119747385
79	0x3d2ea19f	0.042634603
80	0x3f0d61a9	0.5522714
81	0x3e9c440c	0.30520666
82	0x3ed998e8	0.4249947
83	0x3f02aacd	0.5104187
84	0x3d44249c	0.047886476
85	0x3db38532	0.08765639
86	0x3ee38df1	0.4444423
87	0x3ea2b475	0.31778303
88	0x3ec7b3a4	0.39004242
89	0xbd4730f1	-0.04863066
90	0xbd9d220d	-0.0767251
91	0x3ec65557	0.38736984
92	0x3d9e5b2c	0.077322334
93	0xbd2599d3	-0.0404299
94	0xbf0b0c6b	-0.54315823
95	0x3c8a5a58	0.016888782
96	0xbd380269	-0.044924174
97	0xbf18926b	-0.59598416
98	0xbed52a1f	-0.41633698
99	0xbbca7f0a	-0.006179695
100	0x3eaa553f	0.33268163
101	0x3ef695d5	0.48161188
102	0x3d1c7eed	0.038206983
103	0xbed662e4	-0.41872323
104	0x3e99ecb0	0.3006339
105	0xbb9ac769	-0.0047234786
106	0x3d5a208a	0.053253688
107	0x3ea7e142	0.32789046
108	0x3e876d13	0.26450405
109	0x3ec61f61	0.38695815
110	0x3ef9459e	0.48685926
111	0xbedd37c1	-0.432066
112	0xbeed3dd8	-0.46336246
113	0xba21f1ff	-0.0006177723
114	0x3da71993	0.08159175
115	0x3ee8eaa7	0.45491526
116	0xbf5f153a	-0.87141764
117	0xbf4ee195	-0.8081296
118	0x3d51a940	0.0511868
119	0x3d44febd	0.0480945
120	0xbd6ac509	-0.057316814
121	0xbd80e986	-0.06294541
122	0x3ee72608	0.45146203
123	0x3d0305c8	0.031987935
124	0xbeef078b	-0.46685442
125	0xbccf6750	-0.025317818
126	0x3dab6522	0.08368899
127	0xbed6a8e8	-0.4192574
128	0x3ed00c63	0.4063445
129	0x3eafb158	0.3431499
130	0x3eb92568	0.3616135
131	0xbc86f0e1	-0.016472282
132	0xbef75b31	-0.4831176
133	0x3ecf4e35	0.40489355
134	0xbf5ec61b	-0.87021035
135	0xbef56e24	-0.47935593
136	0x3f73baf5	0.9520715
137	0xbee1148e	-0.43960994
138	0x3de73c6d	0.11290822
139	0xbf7209ec	-0.9454639
140	0x3f4f3316	0.80937326
141	0xbcb8d4ef	-0.022562472
142	0x3dcfe1fd	0.10150526
143	0xbd24232c	-0.040072605
144	0x3f0d8a1c	0.55288863
145	0x3ed0c853	0.40777835
146	0x3ee0d6df	0.43913934
147	0x3eed8504	0.46390545
148	0x3dc057a7	0.09391718
149	0x3cf6328d	0.030053401
150	0x3edccc56	0.43124646
151	0x3ee8e623	0.4548808
152	0x3ec3d1eb	0.38246092
153	0x3bb3fc81	0.0054927473
154	0xbca6df03	-0.020370012
155	0x3edf295b	0.4358624
156	0x3c64f72f	0.013974949
157	0xbc136c89	-0.008998045
158	0xbf004b3a	-0.50114787
159	0xbdb34442	-0.087532535
160	0x3cb4cd74	0.022070624
161	0xbf02fbaf	-0.5116529
162	0xbef1b96a	-0.47211772
163	0xbcb6fe8a	-0.02233817
164	0x3ec0e82c	0.37677133
165	0x3eb22764	0.34795678
166	0x3deda0a0	0.116029024
167	0xbed531ab	-0.41639456
168	0x3ea48d36	0.32138985
169	0x3c56367c	0.0130745135
170	0x3d2362d5	0.039889175
171	0x3eb8f8d4	0.3612734
172	0x3edc0b0c	0.42977178
173	0x3ec4afd4	0.38415396
174	0x3ed6b86b	0.41937575
175	0xbeaf5c23	-0.34249982
176	0xbece90c9	-0.40344837
177	0xbc75ee1f	-0.015010386
178	0xbdd39194	-0.10330501
179	0x3eba37c8	0.36370683
180	0xbf5f41a6	-0.87209547
181	0xbf5264aa	-0.8218485
182	0x3d25e727	0.040503647
183	0xbd2cddf2	-0.04220385
184	0x3d9f8df5	0.07790748
185	0x3d0d9ed0	0.034575284
186	0x3ecc7088	0.39929605
187	0x3d14ed90	0.03635937
188	0xbec6c6a6	-0.38823432
189	0x3da3e9b0	0.08003557
190	0x3dbc106e	0.09182821
191	0xbecf536b	-0.4049333
192	0x3e9dd1df	0.3082418
193	0x3ec65180	0.38734055
194	0x3e9f8a66	0.31160277
195	0x3c194680	0.009355187
196	0xbeceae52	-0.4036737
197	0x3eecef6e	0.4627642
198	0xbf5f038b	-0.8711478
199	0xbeb00e7e	-0.34386057
200	0x3f753ee3	0.9579908
201	0xbefcbe67	-0.49364015
202	0xbd2f6574	-0.042821363
203	0xbf72946e	-0.94757736
204	0x3f4dacf0	0.80342007
205	0xbdc6b0e9	-0.09701712
206	0x3cec2afa	0.028829087
207	0x3db59cc1	0.08867789
208	0x3f0b412c	0.5439632
209	0x3ec52757	0.38506576
210	0x3ecef5b4	0.40421832
211	0x3ef719ea	0.48261958
212	0x3da9f9f8	0.08299631
213	0xbd1b19bb	-0.037866335
214	0x3ee613f4	0.44937098
215	0x3eefa667	0.46806642
216	0x3ebde691	0.3708997
217	0xbc762f65	-0.015025948
218	0x3c7a39c3	0.0152725605
219	0x3ec182d5	0.3779513
220	0x3d054019	0.03253183
221	0x3d15bc84	0.036556736
222	0xbedbab71	-0.42904237
223	0xbd7e9298	-0.06215152
224	0x3ba9310a	0.0051633166
225	0xbf0eaddf	-0.55734056
226	0xbecc53f5	-0.39907804
227	0x3dbf1c63	0.09331586
228	0x3e9f494c	0.3111061
229	0x3eca5d30	0.3952422
230	0xbd14c8d4	-0.036324337
231	0xbefe0910	-0.4961629
232	0x3ec0129e	0.37514204
233	0xbd1dcb37	-0.03852388
234	0xbd1345d8	-0.03595528
235	0x3ea5375d	0.322688
236	0x3eb85ec8	0.36009812
237	0x3ee3f7eb	0.44525084
238	0x3ef05cfb	0.46945938
239	0xbec9db3e	-0.3942508
240	0xbefe597a	-0.4967764
241	0x3d0374e1	0.032093886
242	0x3c2132ea	0.009838799
243	0x3edd1152	0.43177277
244	0xbf5dbf70	-0.86620235
245	0xbf4f7213	-0.8103344
246	0x3d3a0294	0.045412615
247	0xbc86edf3	-0.016470885
248	0x3cd4a00d	0.025955224
249	0x3d37b81e	0.044853322
250	0x3ed1e063	0.40991506
251	0x3d8d9b60	0.06914401
252	0xbf02d98e	-0.5111321
253	0xbdb01b67	-0.085989766
254	0x3defaf3e	0.11703347
255	0xbe94b063	-0.29040822

fc3.bias f4 [4]
0	0xbde3690b	-0.1110402
1	0xbd832f77	-0.064055376
2	0xbdd57557	-0.104227714
3	0xbda13969	-0.07872278
